edge-impulse-export/trained.tflite (tflite, 77024 bytes, 3 tensors)

sequential/y_pred/MatMul i1 [4, 16928] scale=0.0016138256 zero_point=0
0	0xfd	-0.0048414767
1	0xff	-0.0016138256
2	0x08	0.0129106045
3	0xfa	-0.009682953
4	0xfe	-0.0032276511
5	0xf3	-0.020979732
6	0xf1	-0.024207383
7	0xff	-0.0016138256
8	0xf8	-0.0129106045
9	0x00	0.0
10	0x07	0.011296779
11	0x02	0.0032276511
12	0xf6	-0.016138256
13	0x0c	0.019365907
14	0xfd	-0.0048414767
15	0xf3	-0.020979732
16	0xe9	-0.037117988
17	0x05	0.008069128
18	0xee	-0.02904886
19	0xe7	-0.04034564
20	0x02	0.0032276511
21	0xf1	-0.024207383
22	0xf0	-0.025821209
23	0xef	-0.027435035
24	0xfa	-0.009682953
25	0xfe	-0.0032276511
26	0x0a	0.016138256
27	0x02	0.0032276511
28	0xf6	-0.016138256
29	0xfa	-0.009682953
30	0xeb	-0.033890337
31	0xf7	-0.01452443
32	0xf6	-0.016138256
33	0xf3	-0.020979732
34	0xed	-0.030662686
35	0xf0	-0.025821209
36	0xfa	-0.009682953
37	0xfd	-0.0048414767
38	0x06	0.009682953
39	0x02	0.0032276511
40	0xee	-0.02904886
41	0xf7	-0.01452443
42	0x08	0.0129106045
43	0xfd	-0.0048414767
44	0xfa	-0.009682953
45	0x03	0.0048414767
46	0x03	0.0048414767
47	0xf8	-0.0129106045
48	0xe5	-0.04357329
49	0x01	0.0016138256
50	0xf6	-0.016138256
51	0xd3	-0.07262215
52	0x00	0.0
53	0xf8	-0.0129106045
54	0xf2	-0.022593558
55	0xec	-0.03227651
56	0xf8	-0.0129106045
57	0xf5	-0.017752081
58	0x06	0.009682953
59	0xf3	-0.020979732
60	0x02	0.0032276511
61	0xf7	-0.01452443
62	0xe6	-0.041959465
63	0x0a	0.016138256
64	0x00	0.0
65	0xec	-0.03227651
66	0xec	-0.03227651
67	0xea	-0.035504162
68	0xe9	-0.037117988
69	0x00	0.0
70	0x0f	0.024207383
71	0xfb	-0.008069128
72	0xeb	-0.033890337
73	0xfd	-0.0048414767
74	0x06	0.009682953
75	0xf8	-0.0129106045
76	0xdc	-0.05809772
77	0x04	0.0064553022
78	0x03	0.0048414767
79	0xf7	-0.01452443
80	0xd2	-0.074235976
81	0xfc	-0.0064553022
82	0xf9	-0.011296779
83	0xd8	-0.06455302
84	0x03	0.0048414767
85	0xfc	-0.0064553022
86	0x06	0.009682953
87	0xec	-0.03227651
88	0x07	0.011296779
89	0x06	0.009682953
90	0x02	0.0032276511
91	0xff	-0.0016138256
92	0x08	0.0129106045
93	0xe9	-0.037117988
94	0xd4	-0.071008325
95	0xf7	-0.01452443
96	0x01	0.0016138256
97	0xf8	-0.0129106045
98	0xf7	-0.01452443
99	0xf3	-0.020979732
100	0xea	-0.035504162
101	0x04	0.0064553022
102	0x12	0.02904886
103	0xf7	-0.01452443
104	0xe0	-0.051642418
105	0xfe	-0.0032276511
106	0xf9	-0.011296779
107	0x00	0.0
108	0xd8	-0.06455302
109	0x03	0.0048414767
110	0x07	0.011296779
111	0x02	0.0032276511
112	0xd9	-0.0629392
113	0x0c	0.019365907
114	0xf5	-0.017752081
115	0xcf	-0.07907745
116	0x09	0.01452443
117	0x0b	0.017752081
118	0x01	0.0016138256
119	0xe0	-0.051642418
120	0x0a	0.016138256
121	0x00	0.0
122	0x01	0.0016138256
123	0xfa	-0.009682953
124	0x06	0.009682953
125	0xee	-0.02904886
126	0xd1	-0.0758498
127	0x09	0.01452443
128	0xf7	-0.01452443
129	0xf6	-0.016138256
130	0xef	-0.027435035
131	0xde	-0.05487007
132	0xe2	-0.048414767
133	0xf4	-0.019365907
134	0x07	0.011296779
135	0x05	0.008069128
136	0xfb	-0.008069128
137	0x02	0.0032276511
138	0x01	0.0016138256
139	0x01	0.0016138256
140	0xcb	-0.085532755
141	0xfc	-0.0064553022
142	0x00	0.0
143	0x07	0.011296779
144	0xd9	-0.0629392
145	0xf8	-0.0129106045
146	0x00	0.0
147	0xd7	-0.06616685
148	0xfb	-0.008069128
149	0x09	0.01452443
150	0xfb	-0.008069128
151	0xd9	-0.0629392
152	0x04	0.0064553022
153	0x04	0.0064553022
154	0xf9	-0.011296779
155	0xf2	-0.022593558
156	0x05	0.008069128
157	0xda	-0.06132537
158	0xd4	-0.071008325
159	0x08	0.0129106045
160	0xf3	-0.020979732
161	0xf4	-0.019365907
162	0x06	0.009682953
163	0xec	-0.03227651
164	0xe1	-0.050028592
165	0xf5	-0.017752081
166	0x06	0.009682953
167	0x01	0.0016138256
168	0xe4	-0.045187116
169	0x03	0.0048414767
170	0x09	0.01452443
171	0x04	0.0064553022
172	0xcb	-0.085532755
173	0xfc	-0.0064553022
174	0x06	0.009682953
175	0xfb	-0.008069128
176	0xe3	-0.04680094
177	0x01	0.0016138256
178	0xec	-0.03227651
179	0xcb	-0.085532755
180	0x00	0.0
181	0x05	0.008069128
182	0xf1	-0.024207383
183	0xeb	-0.033890337
184	0xfd	-0.0048414767
185	0xfb	-0.008069128
186	0xf7	-0.01452443
187	0xee	-0.02904886
188	0x0a	0.016138256
189	0xf2	-0.022593558
190	0xc9	-0.088760406
191	0xfe	-0.0032276511
192	0xfa	-0.009682953
193	0xf0	-0.025821209
194	0xfb	-0.008069128
195	0xdd	-0.056483895
196	0xdd	-0.056483895
197	0xf1	-0.024207383
198	0xf6	-0.016138256
199	0x01	0.0016138256
200	0xe8	-0.038731813
201	0x04	0.0064553022
202	0xfa	-0.009682953
203	0x03	0.0048414767
204	0xd0	-0.07746363
205	0x0e	0.022593558
206	0x04	0.0064553022
207	0x01	0.0016138256
208	0xd4	-0.071008325
209	0xf9	-0.011296779
210	0xf3	-0.020979732
211	0xf4	-0.019365907
212	0x09	0.01452443
213	0x08	0.0129106045
214	0xfe	-0.0032276511
215	0xe3	-0.04680094
216	0xf6	-0.016138256
217	0xf1	-0.024207383
218	0xef	-0.027435035
219	0xf0	-0.025821209
220	0x04	0.0064553022
221	0xe1	-0.050028592
222	0xd1	-0.0758498
223	0xf6	-0.016138256
224	0xfc	-0.0064553022
225	0xf6	-0.016138256
226	0xf3	-0.020979732
227	0xd9	-0.0629392
228	0xe0	-0.051642418
229	0xfc	-0.0064553022
230	0xfb	-0.008069128
231	0xf3	-0.020979732
232	0xf4	-0.019365907
233	0x03	0.0048414767
234	0xfc	-0.0064553022
235	0x03	0.0048414767
236	0xd6	-0.06778067
237	0x03	0.0048414767
238	0xf0	-0.025821209
239	0x09	0.01452443
240	0xea	-0.035504162
241	0x08	0.0129106045
242	0xfa	-0.009682953
243	0xef	-0.027435035
244	0x03	0.0048414767
245	0xfd	-0.0048414767
246	0xff	-0.0016138256
247	0xf8	-0.0129106045
248	0xfc	-0.0064553022
249	0x02	0.0032276511
250	0xee	-0.02904886
251	0xfd	-0.0048414767
252	0xfc	-0.0064553022
253	0xe2	-0.048414767
254	0xd2	-0.074235976
255	0xf5	-0.017752081

sequential/conv2d_1/Conv2D i1 [32, 3, 3, 16]
0	0x05	5
1	0x19	25
2	0xe2	-30
3	0x17	23
4	0xf9	-7
5	0xd8	-40
6	0x81	-127
7	0x47	71
8	0xfb	-5
9	0x30	48
10	0xd1	-47
11	0xfb	-5
12	0x17	23
13	0x51	81
14	0x34	52
15	0x2b	43
16	0x01	1
17	0x0b	11
18	0xe1	-31
19	0x4c	76
20	0x18	24
21	0x1b	27
22	0x06	6
23	0x27	39
24	0xc4	-60
25	0xd1	-47
26	0x0b	11
27	0x1b	27
28	0x45	69
29	0x0f	15
30	0xaf	-81
31	0xfe	-2
32	0x5a	90
33	0x19	25
34	0x1d	29
35	0x4e	78
36	0x4a	74
37	0xa3	-93
38	0xbe	-66
39	0x28	40
40	0x2a	42
41	0xe0	-32
42	0x4b	75
43	0x0a	10
44	0x27	39
45	0xe6	-26
46	0x25	37
47	0x0c	12
48	0xb6	-74
49	0x99	-103
50	0x13	19
51	0x3a	58
52	0x3d	61
53	0xee	-18
54	0xa1	-95
55	0x31	49
56	0x47	71
57	0x4c	76
58	0x1a	26
59	0xa8	-88
60	0x23	35
61	0x38	56
62	0x42	66
63	0xec	-20
64	0xdd	-35
65	0xb4	-76
66	0x0d	13
67	0xdb	-37
68	0x1e	30
69	0x04	4
70	0x18	24
71	0xe2	-30
72	0xfe	-2
73	0xf3	-13
74	0x31	49
75	0xd8	-40
76	0x19	25
77	0xe7	-25
78	0xcc	-52
79	0xf9	-7
80	0x18	24
81	0xf6	-10
82	0x03	3
83	0xf1	-15
84	0x13	19
85	0x24	36
86	0x01	1
87	0x03	3
88	0x4a	74
89	0xfd	-3
90	0x2f	47
91	0xad	-83
92	0xd9	-39
93	0x01	1
94	0xea	-22
95	0x37	55
96	0x14	20
97	0xfa	-6
98	0xd4	-44
99	0xe1	-31
100	0x13	19
101	0x49	73
102	0xc9	-55
103	0x46	70
104	0x40	64
105	0x27	39
106	0x13	19
107	0xae	-82
108	0x02	2
109	0x16	22
110	0x0d	13
111	0x03	3
112	0x2a	42
113	0xfd	-3
114	0xe6	-26
115	0x11	17
116	0x52	82
117	0x2a	42
118	0xaf	-81
119	0xfd	-3
120	0x61	97
121	0x48	72
122	0x18	24
123	0x9d	-99
124	0x00	0
125	0xfe	-2
126	0xde	-34
127	0x30	48
128	0x10	16
129	0xec	-20
130	0xfd	-3
131	0x05	5
132	0x32	50
133	0xed	-19
134	0xc8	-56
135	0x07	7
136	0xea	-22
137	0xe5	-27
138	0x06	6
139	0xb5	-75
140	0x0f	15
141	0xf6	-10
142	0x26	38
143	0x4c	76
144	0x27	39
145	0x33	51
146	0x24	36
147	0xf4	-12
148	0x2c	44
149	0x0f	15
150	0x4b	75
151	0x21	33
152	0x69	105
153	0x20	32
154	0x31	49
155	0x38	56
156	0x0b	11
157	0x20	32
158	0xea	-22
159	0x3f	63
160	0x48	72
161	0x48	72
162	0x1f	31
163	0x12	18
164	0x71	113
165	0x1f	31
166	0x29	41
167	0xcf	-49
168	0x0f	15
169	0x3b	59
170	0x75	117
171	0x45	69
172	0xe8	-24
173	0xfe	-2
174	0x3d	61
175	0x1c	28
176	0x0c	12
177	0x3b	59
178	0x30	48
179	0xcd	-51
180	0x2a	42
181	0x48	72
182	0x03	3
183	0xeb	-21
184	0x0f	15
185	0x03	3
186	0x17	23
187	0x4d	77
188	0x1a	26
189	0x32	50
190	0x32	50
191	0xed	-19
192	0x6d	109
193	0x55	85
194	0x5a	90
195	0x2b	43
196	0x34	52
197	0x13	19
198	0xfe	-2
199	0x0f	15
200	0x45	69
201	0xec	-20
202	0x4c	76
203	0x66	102
204	0x06	6
205	0xd4	-44
206	0x4d	77
207	0x27	39
208	0x6f	111
209	0x13	19
210	0x55	85
211	0xf5	-11
212	0x73	115
213	0x12	18
214	0x1a	26
215	0x23	35
216	0x08	8
217	0xf3	-13
218	0x32	50
219	0x78	120
220	0xdf	-33
221	0xdb	-37
222	0x08	8
223	0xe2	-30
224	0x37	55
225	0x10	16
226	0x1d	29
227	0xfd	-3
228	0x34	52
229	0x39	57
230	0x3c	60
231	0x0b	11
232	0x17	23
233	0x18	24
234	0x38	56
235	0x5c	92
236	0x0e	14
237	0xf4	-12
238	0x58	88
239	0x2f	47
240	0x26	38
241	0x28	40
242	0x15	21
243	0x0c	12
244	0x7f	127
245	0x34	52
246	0x13	19
247	0x20	32
248	0x15	21
249	0x36	54
250	0x6f	111
251	0x18	24
252	0xe7	-25
253	0x20	32
254	0xf9	-7
255	0x1c	28

sequential/conv2d/Conv2D i1 [16, 3, 3, 1]
0	0x1a	26
1	0x0d	13
2	0x89	-119
3	0x65	101
4	0xb6	-74
5	0x24	36
6	0x7f	127
7	0x97	-105
8	0xf1	-15
9	0xbe	-66
10	0x08	8
11	0xb5	-75
12	0xc5	-59
13	0x11	17
14	0xf1	-15
15	0x6d	109
16	0x7f	127
17	0xb9	-71
18	0x66	102
19	0x86	-122
20	0x81	-127
21	0x4b	75
22	0xb2	-78
23	0x3b	59
24	0x50	80
25	0xad	-83
26	0x55	85
27	0xaf	-81
28	0x0c	12
29	0x6d	109
30	0x6c	108
31	0x6f	111
32	0x0a	10
33	0xf7	-9
34	0x2f	47
35	0x7f	127
36	0x7f	127
37	0x02	2
38	0xbe	-66
39	0x1c	28
40	0xf9	-7
41	0xa7	-89
42	0x52	82
43	0xef	-17
44	0xbf	-65
45	0xf5	-11
46	0x18	24
47	0x7f	127
48	0xbd	-67
49	0x02	2
50	0xdf	-33
51	0x42	66
52	0xe4	-28
53	0x8c	-116
54	0x7f	127
55	0x15	21
56	0x08	8
57	0xde	-34
58	0x8b	-117
59	0xc8	-56
60	0xe2	-30
61	0x23	35
62	0xec	-20
63	0x72	114
64	0x5b	91
65	0x74	116
66	0xb6	-74
67	0xf0	-16
68	0x7f	127
69	0x58	88
70	0xe7	-25
71	0xfc	-4
72	0x7f	127
73	0x41	65
74	0x04	4
75	0xe1	-31
76	0xdf	-33
77	0x98	-104
78	0xa6	-90
79	0x3e	62
80	0xef	-17
81	0x88	-120
82	0x73	115
83	0x7d	125
84	0x7f	127
85	0xfb	-5
86	0xad	-83
87	0x86	-122
88	0x29	41
89	0xc2	-62
90	0x7f	127
91	0xf2	-14
92	0xb0	-80
93	0x4f	79
94	0x22	34
95	0xb3	-77
96	0xab	-85
97	0x4c	76
98	0xc2	-62
99	0x26	38
100	0x81	-127
101	0xcb	-53
102	0x47	71
103	0x84	-124
104	0xa4	-92
105	0x71	113
106	0x1d	29
107	0x5b	91
108	0xe0	-32
109	0x7f	127
110	0x23	35
111	0x71	113
112	0x0e	14
113	0x55	85
114	0x59	89
115	0x71	113
116	0xc8	-56
117	0x28	40
118	0x46	70
119	0x23	35
120	0x1a	26
121	0x67	103
122	0x7f	127
123	0x56	86
124	0x1a	26
125	0x34	52
126	0x7f	127
127	0x29	41
128	0xe3	-29
129	0xad	-83
130	0x8b	-117
131	0x15	21
132	0xd2	-46
133	0xdc	-36
134	0x77	119
135	0x05	5
136	0x31	49
137	0x29	41
138	0x4c	76
139	0xc6	-58
140	0x8f	-113
141	0x8f	-113
142	0x25	37
143	0x7f	127
